{"class_name": "Model", "keras_version": "2.0.2", "config": {"layers": [{"class_name": "InputLayer", "config": {"dtype": "float32", "batch_input_shape": [null, 64, 42, 3], "name": "input_1", "sparse": false}, "inbound_nodes": [], "name": "input_1"}, {"class_name": "InputLayer", "config": {"dtype": "float32", "batch_input_shape": [null, 100], "name": "input_2", "sparse": false}, "inbound_nodes": [], "name": "input_2"}, {"class_name": "Sequential", "config": [{"class_name": "Conv2D", "config": {"kernel_initializer": {"class_name": "VarianceScaling", "config": {"distribution": "uniform", "scale": 1.0, "seed": null, "mode": "fan_avg"}}, "name": "conv2d_1", "kernel_constraint": null, "bias_regularizer": null, "bias_constraint": null, "dtype": "float32", "activation": "relu", "trainable": true, "data_format": "channels_last", "padding": "same", "strides": [1, 1], "dilation_rate": [1, 1], "kernel_regularizer": null, "filters": 32, "bias_initializer": {"class_name": "Zeros", "config": {}}, "batch_input_shape": [null, 64, 42, 3], "use_bias": true, "activity_regularizer": null, "kernel_size": [5, 5]}}, {"class_name": "Conv2D", "config": {"kernel_initializer": {"class_name": "VarianceScaling", "config": {"distribution": "uniform", "scale": 1.0, "seed": null, "mode": "fan_avg"}}, "name": "conv2d_2", "kernel_constraint": null, "bias_regularizer": null, "bias_constraint": null, "activation": "relu", "trainable": true, "data_format": "channels_last", "padding": "same", "strides": [1, 1], "dilation_rate": [1, 1], "kernel_regularizer": null, "filters": 32, "bias_initializer": {"class_name": "Zeros", "config": {}}, "use_bias": true, "activity_regularizer": null, "kernel_size": [5, 5]}}, {"class_name": "MaxPooling2D", "config": {"name": "max_pooling2d_1", "trainable": true, "data_format": "channels_last", "pool_size": [2, 2], "padding": "valid", "strides": [2, 2]}}, {"class_name": "Conv2D", "config": {"kernel_initializer": {"class_name": "VarianceScaling", "config": {"distribution": "uniform", "scale": 1.0, "seed": null, "mode": "fan_avg"}}, "name": "conv2d_3", "kernel_constraint": null, "bias_regularizer": null, "bias_constraint": null, "activation": "relu", "trainable": true, "data_format": "channels_last", "padding": "same", "strides": [1, 1], "dilation_rate": [1, 1], "kernel_regularizer": null, "filters": 64, "bias_initializer": {"class_name": "Zeros", "config": {}}, "use_bias": true, "activity_regularizer": null, "kernel_size": [5, 5]}}, {"class_name": "Conv2D", "config": {"kernel_initializer": {"class_name": "VarianceScaling", "config": {"distribution": "uniform", "scale": 1.0, "seed": null, "mode": "fan_avg"}}, "name": "conv2d_4", "kernel_constraint": null, "bias_regularizer": null, "bias_constraint": null, "activation": "relu", "trainable": true, "data_format": "channels_last", "padding": "same", "strides": [1, 1], "dilation_rate": [1, 1], "kernel_regularizer": null, "filters": 64, "bias_initializer": {"class_name": "Zeros", "config": {}}, "use_bias": true, "activity_regularizer": null, "kernel_size": [5, 5]}}, {"class_name": "MaxPooling2D", "config": {"name": "max_pooling2d_2", "trainable": true, "data_format": "channels_last", "pool_size": [2, 2], "padding": "valid", "strides": [2, 2]}}, {"class_name": "Flatten", "config": {"trainable": true, "name": "flatten_1"}}, {"class_name": "Dense", "config": {"kernel_initializer": {"class_name": "VarianceScaling", "config": {"distribution": "uniform", "scale": 1.0, "seed": null, "mode": "fan_avg"}}, "name": "dense_1", "kernel_constraint": null, "bias_regularizer": null, "bias_constraint": null, "activation": "relu", "trainable": true, "kernel_regularizer": null, "bias_initializer": {"class_name": "Zeros", "config": {}}, "units": 128, "use_bias": true, "activity_regularizer": null}}, {"class_name": "Dropout", "config": {"rate": 0.5, "trainable": true, "name": "dropout_1"}}, {"class_name": "Dense", "config": {"kernel_initializer": {"class_name": "VarianceScaling", "config": {"distribution": "uniform", "scale": 1.0, "seed": null, "mode": "fan_avg"}}, "name": "dense_2", "kernel_constraint": null, "bias_regularizer": null, "bias_constraint": null, "activation": "relu", "trainable": true, "kernel_regularizer": {"class_name": "L1L2", "config": {"l2": 0.004999999888241291, "l1": 0.0}}, "bias_initializer": {"class_name": "Zeros", "config": {}}, "units": 128, "use_bias": true, "activity_regularizer": null}}, {"class_name": "Dropout", "config": {"rate": 0.5, "trainable": true, "name": "dropout_2"}}, {"class_name": "Dense", "config": {"kernel_initializer": {"class_name": "VarianceScaling", "config": {"distribution": "uniform", "scale": 1.0, "seed": null, "mode": "fan_avg"}}, "name": "dense_3", "kernel_constraint": null, "bias_regularizer": null, "bias_constraint": null, "activation": "relu", "trainable": true, "kernel_regularizer": {"class_name": "L1L2", "config": {"l2": 0.004999999888241291, "l1": 0.0}}, "bias_initializer": {"class_name": "Zeros", "config": {}}, "units": 128, "use_bias": true, "activity_regularizer": null}}], "inbound_nodes": [[["input_1", 0, 0, {}]]], "name": "sequential_1"}, {"class_name": "Sequential", "config": [{"class_name": "Dense", "config": {"kernel_initializer": {"class_name": "VarianceScaling", "config": {"distribution": "uniform", "scale": 1.0, "seed": null, "mode": "fan_avg"}}, "name": "dense_4", "kernel_constraint": null, "bias_regularizer": null, "bias_constraint": null, "dtype": "float32", "activation": "relu", "trainable": true, "kernel_regularizer": {"class_name": "L1L2", "config": {"l2": 0.004999999888241291, "l1": 0.0}}, "bias_initializer": {"class_name": "Zeros", "config": {}}, "units": 128, "batch_input_shape": [null, 100], "use_bias": true, "activity_regularizer": null}}, {"class_name": "Dense", "config": {"kernel_initializer": {"class_name": "VarianceScaling", "config": {"distribution": "uniform", "scale": 1.0, "seed": null, "mode": "fan_avg"}}, "name": "dense_5", "kernel_constraint": null, "bias_regularizer": null, "bias_constraint": null, "activation": "relu", "trainable": true, "kernel_regularizer": {"class_name": "L1L2", "config": {"l2": 0.004999999888241291, "l1": 0.0}}, "bias_initializer": {"class_name": "Zeros", "config": {}}, "units": 128, "use_bias": true, "activity_regularizer": null}}], "inbound_nodes": [[["input_2", 0, 0, {}]]], "name": "sequential_2"}, {"class_name": "Lambda", "config": {"function": ["c\u0001\u0000\u0000\u0000\u0003\u0000\u0000\u0000\b\u0000\u0000\u0000C@\u0001\u0000sM\u0000\u0000\u0000|\u0000\u0000\\\u0002\u0000}\u0001\u0000}\u0002\u0000t\u0000\u0000j\u0001\u0000t\u0000\u0000j\u0002\u0000t\u0000\u0000j\u0003\u0000t\u0000\u0000j\u0004\u0000|\u0001\u0000|\u0002\u0000\u0018\u0083\u0001\u0000d\u0001\u0000d\u0002\u0000d\u0003\u0000t\u0005\u0000\u0083\u0001\u0002t\u0000\u0000j\u0006\u0000\u0083\u0000\u0000\u0083\u0002\u0000\u0083\u0001\u0000S(\u0004\u0000\u0000\u0000Nt\u0004\u0000\u0000\u0000axisi\u0001\u0000\u0000\u0000t\b\u0000\u0000\u0000keepdims(\u0007\u0000\u0000\u0000t\u0001\u0000\u0000\u0000Kt\u0004\u0000\u0000\u0000sqrtt\u0007\u0000\u0000\u0000maximumt\u0003\u0000\u0000\u0000sumt\u0006\u0000\u0000\u0000squaret\u0004\u0000\u0000\u0000Truet\u0007\u0000\u0000\u0000epsilon(\u0003\u0000\u0000\u0000t\u0005\u0000\u0000\u0000vectst\u0001\u0000\u0000\u0000xt\u0001\u0000\u0000\u0000y(\u0000\u0000\u0000\u0000(\u0000\u0000\u0000\u0000s\u0018\u0000\u0000\u0000train_single_embeding.pyt\u0012\u0000\u0000\u0000euclidean_distance\u0017\u0000\u0000\u0000s\u0004\u0000\u0000\u0000\u0000\u0001\f\u0001", null, null], "name": "lambda_1", "trainable": true, "function_type": "lambda", "arguments": {}, "output_shape": ["c\u0001\u0000\u0000\u0000\u0003\u0000\u0000\u0000\u0002\u0000\u0000\u0000C@\u0001\u0000s\u001a\u0000\u0000\u0000|\u0000\u0000\\\u0002\u0000}\u0001\u0000}\u0002\u0000|\u0001\u0000d\u0001\u0000\u0019d\u0002\u0000f\u0002\u0000S(\u0003\u0000\u0000\u0000Ni\u0000\u0000\u0000\u0000i\u0001\u0000\u0000\u0000(\u0000\u0000\u0000\u0000(\u0003\u0000\u0000\u0000t\u0006\u0000\u0000\u0000shapest\u0006\u0000\u0000\u0000shape1t\u0006\u0000\u0000\u0000shape2(\u0000\u0000\u0000\u0000(\u0000\u0000\u0000\u0000s\u0018\u0000\u0000\u0000train_single_embeding.pyt\u0016\u0000\u0000\u0000eucl_dist_output_shape\u001b\u0000\u0000\u0000s\u0004\u0000\u0000\u0000\u0000\u0001\f\u0001", null, null], "output_shape_type": "lambda"}, "inbound_nodes": [[["sequential_1", 1, 0, {}], ["sequential_2", 1, 0, {}]]], "name": "lambda_1"}], "input_layers": [["input_1", 0, 0], ["input_2", 0, 0]], "output_layers": [["lambda_1", 0, 0]], "name": "model_1"}, "backend": "tensorflow"}